AI/q-learning/acrobot/acrobot_solved.pth (torch, 40489 bytes, 6 tensors)

fc1.weight f4 [128, 6]
0	0xbfc9c9c9	-1.5764705
1	0x3bfe69ad	0.0077640624
2	0xbf1aa7e7	-0.6041245
3	0xbe5c626f	-0.21521924
4	0x3d0416f2	0.032248445
5	0x3f1d51b9	0.61452824
6	0xbefd070c	-0.4941944
7	0xbe94a9f0	-0.29035902
8	0x3e83e815	0.25763002
9	0x3fb65964	1.424603
10	0x3e428df2	0.1899946
11	0xbe9423d3	-0.28933582
12	0xbf7d8f1e	-0.99046504
13	0xbf17a572	-0.59236825
14	0xbf838844	-1.027596
15	0xbe2e37e2	-0.17013505
16	0xbef09de6	-0.46995467
17	0xbeda17fd	-0.42596427
18	0x3e4794cb	0.19490354
19	0xbe872dc2	-0.26402098
20	0xbf69c743	-0.91319674
21	0x3dc6fb8f	0.0971595
22	0x3f353e11	0.7079783
23	0x3e8c5754	0.27410376
24	0xbf05d0cc	-0.52271724
25	0xbe90ac08	-0.2825625
26	0xbf844304	-1.0332952
27	0x3ef9d164	0.48792565
28	0xbe9ed922	-0.31025034
29	0x3ecf2546	0.40458125
30	0xbe5a3c78	-0.2131213
31	0xbf6de43d	-0.9292639
32	0xbfa1f3df	-1.2652549
33	0x3d7c5d0d	0.061612178
34	0x3d1ed2c4	0.03877522
35	0xbf26d0f5	-0.65162593
36	0x3f8b6935	1.0891482
37	0xbd20921c	-0.03920184
38	0x3d99b709	0.07505614
39	0x3d8bd251	0.06827224
40	0x3efb5c5d	0.49093905
41	0x3de35015	0.11099259
42	0x3f14ce93	0.5812771
43	0x401b9b50	2.4313545
44	0x3e3746ac	0.17898053
45	0x3f0bb12b	0.5456721
46	0xbefb4cf4	-0.49082148
47	0x3ddf59e2	0.10905816
48	0x3efdc8db	0.49567303
49	0x3f524528	0.82136774
50	0x3f805766	1.0026672
51	0xbf176377	-0.59136146
52	0x3ebaed81	0.36509326
53	0x3ecf3b38	0.40474868
54	0xbe990e8c	-0.2989391
55	0xbe143491	-0.14473177
56	0x3f4feaab	0.8121745
57	0x3d18c978	0.03730151
58	0x3ef51d94	0.4787413
59	0xbe9f715f	-0.31141183
60	0x3e7d5728	0.24740279
61	0xbe84000b	-0.25781283
62	0x3f16146e	0.58624923
63	0x3d54baab	0.051935833
64	0x3f50341e	0.81329525
65	0x3f068acb	0.5255553
66	0xbfc08d8c	-1.5043197
67	0x3df4e944	0.119585544
68	0xbf95ea10	-1.1712055
69	0x3f640253	0.89066046
70	0xbf165254	-0.5871937
71	0xbe9fda06	-0.31221026
72	0x3f35f7f2	0.7108146
73	0x3fe69ee9	1.8017246
74	0x3e89c476	0.269077
75	0x3f54747c	0.8299024
76	0xbee14d1c	-0.44004142
77	0xbef6f44d	-0.48233262
78	0x3f98297f	1.1887664
79	0x3f1151f5	0.5676568
80	0x3ec3d5cf	0.3824906
81	0x3e830930	0.25592947
82	0xbea8e911	-0.32990316
83	0x3cf55b1f	0.029950676
84	0x3f3f0a5f	0.746252
85	0xbe31fdac	-0.17381924
86	0xbd5e44f4	-0.054264978
87	0xbf0db361	-0.55351835
88	0xbe7bbfc1	-0.24584867
89	0xbe6b1d06	-0.2296029
90	0xbf72e329	-0.9487787
91	0x3f929372	1.1451247
92	0xbf0e2cb7	-0.5553698
93	0x3e392bbc	0.1808309
94	0x3f2b5a61	0.6693478
95	0x3e541be5	0.20713766
96	0xbf890248	-1.0703821
97	0xbf15a72d	-0.58458215
98	0xbf3f7dbc	-0.7480123
99	0x3f8d056f	1.1017283
100	0x3ef4dcd0	0.47824717
101	0x3e9fa925	0.31183735
102	0x3e253b57	0.16135918
103	0x3e4a2aea	0.19742933
104	0xbe1519b1	-0.14560582
105	0xc0124a0c	-2.2857695
106	0xbed069eb	-0.4070581
107	0x3ec43486	0.38321322
108	0x3fcf9c03	1.6219486
109	0xbfafe57d	-1.3741909
110	0xbe8c689e	-0.27423567
111	0xbf025f4e	-0.50926673
112	0x3f5bf478	0.85919905
113	0x3e5704bc	0.209979
114	0x3e49505b	0.1965956
115	0x3f0e0c0f	0.5548715
116	0xbf400a83	-0.7501604
117	0xbf7a2795	-0.9771665
118	0xbf3df90b	-0.74208134
119	0xbe25288a	-0.16128746
120	0x3e321bbe	0.17393395
121	0xbf46f29a	-0.7771393
122	0x3e03ea15	0.12882264
123	0x3fb35a62	1.4011958
124	0x3eabd77c	0.3356284
125	0xbe32dd40	-0.17467213
126	0xbd60ddc5	-0.054898996
127	0xbef3c464	-0.47610772
128	0xbf30b1f2	-0.69021523
129	0x3ff34695	1.9005915
130	0x3eb6b8d1	0.3568788
131	0xbe9e0e3a	-0.3087023
132	0xbf1cd4d0	-0.61262226
133	0xbd007b0e	-0.031367354
134	0x3f461291	0.7737208
135	0x3f468f81	0.7756272
136	0x3d4641c0	0.048402548
137	0xbed97b4b	-0.42476878
138	0x3ec01ed2	0.37523514
139	0x3f353449	0.70782906
140	0xbed3eb8f	-0.41390654
141	0xbf5d0e52	-0.86349976
142	0xbe2752e6	-0.16340217
143	0x3e883baf	0.26608035
144	0x3f4d18b3	0.80115813
145	0x3faa1127	1.3286484
146	0xbf5c52c2	-0.8606378
147	0xbfbabecb	-1.4589475
148	0x3e4c81c6	0.1997138
149	0x3eb540db	0.35401043
150	0x3e984769	0.29741982
151	0x3f9f7ba8	1.2459612
152	0x3f18e19f	0.5971927
153	0xbf38961b	-0.7210404
154	0xbf26b5e1	-0.65121275
155	0xbe5c1280	-0.21491432
156	0x3cf3a59b	0.029742053
157	0xbfbd946a	-1.4810917
158	0xbf719e6c	-0.9438236
159	0xbf016564	-0.50545335
160	0xbf34ce91	-0.70627695
161	0x3d168909	0.03675178
162	0xbfc64ef4	-1.5492845
163	0x3e76ce78	0.24102199
164	0xbe83671d	-0.25664607
165	0xbf20d5aa	-0.62826025
166	0x3f116f07	0.5681004
167	0x3e83f3fd	0.25772086
168	0xbf6d8d44	-0.9279368
169	0xbf888cb4	-1.0667939
170	0xbf488c96	-0.7833952
171	0xbe4b8ae5	-0.19877203
172	0xbf077285	-0.5290912
173	0x3e442354	0.19154102
174	0xbfe773cf	-1.8082217
175	0x3ed73b99	0.42037657
176	0xbe6681f8	-0.22510517
177	0x3f33f5d3	0.70296973
178	0x3ee4f876	0.4472081
179	0xbe1d5c49	-0.15367235
180	0x3f935b3e	1.151222
181	0x3eabb67b	0.3353766
182	0xbe38cd26	-0.18047008
183	0xbeb7fcfd	-0.35935202
184	0x3e5e5516	0.21712145
185	0xbe29f743	-0.16598229
186	0x3f91066d	1.1330086
187	0xbf0e0165	-0.5547088
188	0xbf4b3565	-0.7937835
189	0x3e4541b2	0.19263342
190	0xbe474fd6	-0.19464049
191	0x3e2105c4	0.15724856
192	0xbe931612	-0.28727776
193	0x3f97f77a	1.1872399
194	0x3ec89322	0.39174753
195	0x3f7fbd98	0.9989867
196	0xbf155373	-0.5833046
197	0xbd4001f9	-0.04687688
198	0x3f6fac11	0.9362193
199	0xbcabfd3d	-0.020994777
200	0xbf2e7cae	-0.68158996
201	0xbefed4e8	-0.4977181
202	0x3eae9640	0.34099007
203	0x3ece73e2	0.40322787
204	0x3f94c835	1.1623598
205	0x3fab6c14	1.3392358
206	0x3f667dac	0.9003551
207	0xbe980829	-0.29693726
208	0xbee3ab68	-0.4446671
209	0x3e02483c	0.12722868
210	0xbfdaed03	-1.710358
211	0xbeca1103	-0.39466104
212	0x3eafb727	0.34319422
213	0xbeb8407b	-0.35986695
214	0x3e68406d	0.22680826
215	0x3f666f32	0.9001342
216	0x3f80c3f7	1.0059804
217	0xbe822c29	-0.25424317
218	0x3eaa1181	0.3321648
219	0x3f3a0676	0.7266611
220	0x3e5f774d	0.21822853
221	0x3e9818f7	0.29706547
222	0xbf0bf879	-0.54676014
223	0xbf84c929	-1.0373889
224	0x3d806fb7	0.06271308
225	0x3f111a27	0.5668053
226	0x3f2375e1	0.63851744
227	0x3e8c2fe6	0.27380294
228	0x3faeaf73	1.3647293
229	0x3f00f044	0.50366616
230	0x3ee264be	0.44217485
231	0xbe1d92b2	-0.15387991
232	0xbea58a10	-0.32331896
233	0xbe270584	-0.16310698
234	0x3cc15504	0.023600109
235	0x3f303cd4	0.68842816
236	0x3ed0131e	0.40639585
237	0xbf2b69b9	-0.66958195
238	0x3e63cbd3	0.22245722
239	0xbed49c8b	-0.41525683
240	0xbde53f04	-0.1119366
241	0x3f42518e	0.7590569
242	0xbeddb7e9	-0.43304375
243	0x3ff41e35	1.9071718
244	0x3e91ca61	0.28474715
245	0xbe6725b0	-0.2257297
246	0xbf095998	-0.53652334
247	0x3ef21cdb	0.4728764
248	0xbfbdef9d	-1.4838749
249	0xbe873445	-0.26407066
250	0x3cf85f8a	0.030318994
251	0xbe9876b3	-0.2977806
252	0x3f6351c1	0.8879662
253	0xbea455af	-0.3209662
254	0x3ebe583a	0.37176687
255	0xbdebf593	-0.11521449

fc1.bias f4 [128]
0	0xbe99a04c	-0.3000511
1	0x3f1a6bcc	0.60320735
2	0xbede8b47	-0.43465635
3	0x3de6131d	0.11234114
4	0xbf6c26c0	-0.9224663
5	0xbf33bbc4	-0.7020838
6	0x3f426735	0.7593873
7	0x3ea385f8	0.31938148
8	0x3ea48bc7	0.32137892
9	0xbe45cbbe	-0.19316003
10	0xbea8ab1d	-0.3294305
11	0x3f035e34	0.5131562
12	0xbf90a0ef	-1.1299113
13	0x3d2fca38	0.04291746
14	0x3f34042a	0.70318854
15	0x3cac08e2	0.02100033
16	0xbf6aea5d	-0.9176386
17	0xbe6abb3e	-0.2292299
18	0x3e80fb43	0.25191697
19	0xbfddacae	-1.7318323
20	0xbdf9a1fc	-0.12189099
21	0xbf8df6fc	-1.1090999
22	0x3ca2b42a	0.0198613
23	0x3ee933eb	0.45547423
24	0xbdee76c6	-0.11643748
25	0xbf23e09c	-0.640146
26	0xbeae8f70	-0.3409381
27	0xbe3a2ef6	-0.18181977
28	0xbeae38f6	-0.34027833
29	0xbf91aaa5	-1.1380202
30	0x3eca8ec0	0.39562035
31	0x3f32a4aa	0.6978251
32	0xbf103889	-0.56336266
33	0xbfb314f3	-1.3990768
34	0x3e3cb395	0.1842788
35	0x3e98aec1	0.29820827
36	0x3dff93c6	0.124793574
37	0xbedc3e4d	-0.43016282
38	0xbe823a02	-0.2543488
39	0x3e93b19c	0.28846443
40	0xbda6d56f	-0.08146178
41	0xbe2c764b	-0.16842
42	0x3f3343ef	0.70025533
43	0xbde48a73	-0.111592196
44	0x3ea9a4ec	0.33133638
45	0xbe5d1019	-0.21588172
46	0x3e35f619	0.1776966
47	0xbec2a0a8	-0.38013196
48	0xbf6229d8	-0.883451
49	0x3ee2105e	0.44153112
50	0x3f15f665	0.58579093
51	0x3e4f417a	0.20239821
52	0xbda19ad2	-0.07890858
53	0xbf4876a3	-0.78306025
54	0xbd8d9a7e	-0.06914233
55	0xbf441cef	-0.7660665
56	0xbf5769d6	-0.8414587
57	0x3d86fb70	0.06590927
58	0x3eb11892	0.34589058
59	0x3edd66d8	0.43242526
60	0xbe8b9bf6	-0.27267426
61	0xbf587589	-0.84554344
62	0x3f0fc262	0.5615598
63	0xbe98676a	-0.297664
64	0x3c6ab5b7	0.014325551
65	0x3ec0ec4f	0.3768029
66	0x3e9c3811	0.30511525
67	0xbf2131f7	-0.62966865
68	0xbf4aa598	-0.79158926
69	0xbe9f9aa1	-0.3117266
70	0xbd9a7f27	-0.07543784
71	0xbec6c1ae	-0.3881964
72	0xbf79e4c2	-0.9761468
73	0xbf133c27	-0.5751366
74	0xbd769ad7	-0.06020626
75	0x3df142a4	0.11780289
76	0xbf52b9ab	-0.82314557
77	0x3ea28fe6	0.3175041
78	0x3d6eb32f	0.05827635
79	0x3f08ed44	0.5348704
80	0xbe5d231b	-0.21595423
81	0x3edf08a8	0.43561292
82	0xbe9562ab	-0.2917684
83	0xbeb48a5d	-0.35261813
84	0x3ea72ff5	0.32653776
85	0x3e831595	0.25602403
86	0x3e8394bd	0.25699416
87	0xbe814cc8	-0.25253892
88	0x3fa6e4d5	1.3038584
89	0x3f59b7bb	0.85045975
90	0x3cfd867c	0.030947916
91	0xbbe930a2	-0.007116393
92	0x3e97038b	0.2949489
93	0x3f412db6	0.75460374
94	0xbdab1f9b	-0.08355638
95	0x3cbb3a66	0.022854995
96	0x3f01a372	0.5064002
97	0xbe820cdd	-0.2540044
98	0x3d889573	0.0666913
99	0x3ea1dd04	0.31613934
100	0x3db926d6	0.090406105
101	0x3f27dcda	0.6557137
102	0x3f53ba4d	0.8270615
103	0x3e2a9c62	0.16661218
104	0x3c393d7c	0.011306163
105	0xbefaa033	-0.48950347
106	0x3f028b09	0.509934
107	0xbe8df545	-0.27726188
108	0x3e6ec305	0.23316582
109	0xbee01916	-0.4376914
110	0x3ece4a85	0.4029123
111	0xbf2bd61d	-0.67123586
112	0xbe1c5425	-0.15266474
113	0x3ef6a635	0.4817368
114	0xbe0a3a62	-0.13498834
115	0xbef0a813	-0.4700323
116	0x3f9f8536	1.2462528
117	0x3e205b64	0.15659863
118	0xbe8352f2	-0.2564922
119	0xbeb8c932	-0.36091
120	0xbe5fd16d	-0.21857233
121	0xbd420f4d	-0.047377873
122	0x3e2f68c3	0.17129807
123	0x3f4407bc	0.765743
124	0x3d08cdcc	0.03339939
125	0x3f972776	1.1808918
126	0x3e8f5643	0.279955
127	0xbf703f2f	-0.9384641

fc2.weight f4 [64, 128]
0	0x3e387358	0.1801275
1	0x3e8c81aa	0.27442676
2	0xbe96c55f	-0.29447457
3	0x3eff24b8	0.49832702
4	0x3e3293ab	0.17439143
5	0x3e5021f6	0.20325455
6	0xbe9e6fbe	-0.30944628
7	0x3ec0afe7	0.37634203
8	0xbe74bd5b	-0.23900358
9	0x3f0b3bbc	0.5438802
10	0xbf2533c9	-0.6453214
11	0x3e2bb567	0.16768418
12	0x3f6d3105	0.9265292
13	0xbe5535dd	-0.20821328
14	0xbf0b702a	-0.54468024
15	0x3fd3f407	1.6558846
16	0x3ed17238	0.40907454
17	0x3f05c44f	0.5225267
18	0xbf49f3d7	-0.78887695
19	0x3e0e78f5	0.13913329
20	0xbf9d8bc9	-1.2308284
21	0x3e08705f	0.13324116
22	0xbf8573d1	-1.0425969
23	0x3ea1793f	0.31537816
24	0xbed7d2dd	-0.42153063
25	0x3f81ac9e	1.0130804
26	0xbbaca3b1	-0.005268537
27	0xbef50ead	-0.4786276
28	0x3e4214f9	0.18953313
29	0x3fb3521e	1.4009435
30	0xbe8d5b6d	-0.27608815
31	0x3e4eaae4	0.20182377
32	0xbdcd8848	-0.10035759
33	0x3da79716	0.08183114
34	0x3defb50d	0.117044546
35	0x3d7fe79e	0.062476747
36	0xbe891308	-0.26772332
37	0xbe746b03	-0.23868947
38	0xbe6a654b	-0.22890203
39	0x3f572af9	0.84049946
40	0xbe8e5b1a	-0.2780388
41	0x3f111d57	0.56685394
42	0xbf95b2a9	-1.1695148
43	0xbe992bfa	-0.29916364
44	0x3f22b932	0.63563836
45	0x3f3f1e23	0.7465536
46	0xbecfb9a0	-0.40571308
47	0x3da3935d	0.07987092
48	0x3eec0e9d	0.461049
49	0x3e7aaa68	0.24479067
50	0xbe6fa213	-0.2340167
51	0x3f360795	0.7110532
52	0x3f91c269	1.1387454
53	0xbd1dd803	-0.038536083
54	0xbf14c335	-0.5811036
55	0xbf164043	-0.58691806
56	0xbdc2d0f0	-0.09512508
57	0xbe99794b	-0.29975352
58	0x3c9aebf0	0.018911332
59	0xbf1bf115	-0.60914737
60	0xbeb4bbd4	-0.3529955
61	0xbfe6ba5a	-1.802562
62	0x3e8eef94	0.2791716
63	0xbe85ccc0	-0.26132774
64	0x3e8795c4	0.2648145
65	0xbe29a83c	-0.16568083
66	0x3f624091	0.8837977
67	0xbe87d142	-0.2652684
68	0xbf39230f	-0.7231912
69	0xbedbe1f9	-0.4294584
70	0x3dfc2e1b	0.123134814
71	0x3e88c201	0.26710513
72	0xbe4608c7	-0.19339286
73	0xc0007c77	-2.0075967
74	0x3f2488f5	0.6427148
75	0xbf8164d3	-1.0108894
76	0xbf49e71d	-0.78868276
77	0xbe8bae13	-0.27281246
78	0x3e89a344	0.26882374
79	0xc0044a95	-2.0670521
80	0xc00676a1	-2.1009905
81	0x3d95a816	0.073074505
82	0xbd93d670	-0.07218635
83	0xbf33e416	-0.70269907
84	0x3d827b4a	0.06371172
85	0x3efd7e0c	0.4951023
86	0xbe98f2aa	-0.29872638
87	0xbf00fb65	-0.503836
88	0xbc802ccf	-0.015646366
89	0x3fc4a393	1.5362419
90	0x3dcf7fc1	0.10131789
91	0xbd8ddd3d	-0.069269635
92	0x3ed93ec7	0.42430708
93	0xbe58670d	-0.21133061
94	0xbeda6073	-0.4265171
95	0xc01ede1e	-2.482307
96	0x3e984187	0.29737493
97	0xbe7e859f	-0.2485566
98	0xbf90c62d	-1.1310478
99	0xbebba65c	-0.3665036
100	0xbfff4520	-1.994297
101	0x3ef08a78	0.46980643
102	0x3becc07b	0.007225094
103	0x3d0a3078	0.03373763
104	0x3f57a53d	0.8423651
105	0x3f81247c	1.0089259
106	0xbf35847d	-0.70905286
107	0xbedcb713	-0.43108425
108	0x3ef5d34e	0.48012775
109	0x3eff794e	0.49897236
110	0xbf089d85	-0.53365356
111	0xbe8e1dc7	-0.27757093
112	0xbebc2369	-0.36745766
113	0x3ec4ff47	0.3847601
114	0x3da94974	0.08265963
115	0xc08d9270	-4.4241257
116	0x3ec0d359	0.37661245
117	0x3f26ba45	0.65127975
118	0xbf2c5c79	-0.673286
119	0xbd90fdc0	-0.07079649
120	0xbee95abd	-0.4557704
121	0x3ecbcf3d	0.39806548
122	0xbcf8d5d9	-0.030375408
123	0xbe5b6f07	-0.21429072
124	0x3ef52aaf	0.47884127
125	0x3ebb3c4d	0.36569443
126	0xbf089631	-0.53354174
127	0x3e9907bc	0.29888713
128	0xbf027090	-0.50953007
129	0xbc880a60	-0.01660651
130	0x3f8077ec	1.0036597
131	0x3f16081f	0.5860614
132	0xbf05232a	-0.5200678
133	0x3ee43408	0.44570947
134	0xbdf1a0dc	-0.117982596
135	0xbee6d272	-0.45082432
136	0xbfa413db	-1.281856
137	0x3da65667	0.08121949
138	0x3e8f7442	0.28018385
139	0x3d332806	0.04373934
140	0x3ef3e25f	0.47633645
141	0x3dd4fea8	0.10400134
142	0xbe37cf3a	-0.17950144
143	0x3f6145a2	0.87996876
144	0xbe1451e9	-0.14484371
145	0xbf395574	-0.72396016
146	0x3e438d62	0.19096902
147	0x3f2d5328	0.6770501
148	0x3dcb92d5	0.09940115
149	0x3edca051	0.43091062
150	0xbee8daff	-0.4547958
151	0x3f2cf6ee	0.67564285
152	0xbff02089	-1.8759929
153	0xbef3df87	-0.47631475
154	0x3d3bd914	0.04586132
155	0x3d827351	0.06369651
156	0x3e2b5a97	0.16733776
157	0x3f631aaf	0.8871259
158	0x3e198102	0.14990619
159	0x3ef701a8	0.4824345
160	0x3e84cc49	0.25937107
161	0x3dbba5c9	0.091624804
162	0x3e38f1c9	0.18060984
163	0xbf36a7d0	-0.7134981
164	0xbebd5058	-0.3697536
165	0xbe52f5d4	-0.20601588
166	0x3d98450e	0.07435046
167	0xbd2b039d	-0.041751493
168	0xbd510189	-0.051026855
169	0x3f24b152	0.6433307
170	0xbe898368	-0.26858068
171	0xbceda11a	-0.029007483
172	0xbef96417	-0.48709175
173	0xbec0df25	-0.37670246
174	0xbef09418	-0.46987987
175	0x3e31a446	0.17347822
176	0x3dad640d	0.08466349
177	0xbf3bfdd2	-0.73434174
178	0x3e8a3ead	0.27000943
179	0x3d9d60cf	0.076844804
180	0x3ffc059f	1.9689215
181	0xbff5972f	-1.9186763
182	0x3e35e854	0.17764407
183	0xbe69eb30	-0.22843623
184	0xbefd3ad1	-0.49458936
185	0x3df480fc	0.11938664
186	0x3ecd3aa1	0.40083793
187	0xbb99a128	-0.004688401
188	0x3f44c223	0.7685873
189	0xc02b6e32	-2.6786008
190	0x3e2fe319	0.17176475
191	0x3f75aec4	0.95969796
192	0x3f3eab43	0.74480075
193	0x3d23b33a	0.039965846
194	0x3d6055e0	0.054769397
195	0xbf3a8393	-0.72857016
196	0x3ec75f01	0.3893967
197	0xbf04bd8e	-0.5185174
198	0x3e90a231	0.28248742
199	0x3ea4cc08	0.32186913
200	0xbf40b9cb	-0.752835
201	0xbc0c1307	-0.008549458
202	0x3ec88b21	0.39168647
203	0x3d90b46e	0.07065664
204	0xbedd2d27	-0.4319851
205	0xbebf7378	-0.37392783
206	0x3e5b5361	0.21418525
207	0xbe031a6f	-0.12803052
208	0xbc9b4dbc	-0.018957965
209	0xbcdea5c2	-0.027178649
210	0xbebf29a7	-0.37336466
211	0x3d19a907	0.037514713
212	0x3e3c0b3d	0.18363662
213	0x3eb61040	0.35559273
214	0x3da33f68	0.07971078
215	0xbd98ca70	-0.07460487
216	0xbed2ec18	-0.4119575
217	0xbed20a56	-0.4102351
218	0x3da41f48	0.08013779
219	0x3db460d9	0.08807535
220	0xbebea527	-0.37235376
221	0xbf3d8e56	-0.7404531
222	0x3d199c45	0.037502546
223	0x3db459c4	0.08806184
224	0xbf42e7d5	-0.76135
225	0x3f1f8ab5	0.62321025
226	0x3ce87e1f	0.028380452
227	0xbf71b9b3	-0.9442398
228	0xbe39ca88	-0.18143666
229	0x3e0af786	0.13570985
230	0x3f38b0a7	0.7214455
231	0xbecb58e4	-0.39716256
232	0x3e5a229a	0.21302262
233	0x3e0e38e8	0.13888896
234	0x3c8789c6	0.016545188
235	0x3e536ae6	0.20646247
236	0x3d833a78	0.064076364
237	0x3f4cff84	0.80077386
238	0xbfbc9afa	-1.4734795
239	0x3f522785	0.8209155
240	0x3d5938ab	0.05303256
241	0xbcd08bff	-0.02545738
242	0xbf284fb2	-0.65746605
243	0x3dd18108	0.10229689
244	0xbf756721	-0.9586049
245	0x3f098f24	0.5373404
246	0xbe89c62d	-0.2690901
247	0x3ed769f8	0.42073035
248	0x3e5a0293	0.21290044
249	0x3e893f5a	0.26806146
250	0x3f4142c4	0.754925
251	0xbef2e101	-0.4743729
252	0x3e7632ea	0.2404286
253	0x3ea0a03d	0.31372252
254	0xbf546a66	-0.8297485
255	0x3e2e5059	0.17022838

fc2.bias f4 [64]
0	0x3eeeff65	0.46679226
1	0xbee7920c	-0.45228612
2	0x3e87925f	0.2647886
3	0x3e0a4d9d	0.1350617
4	0xbd939914	-0.07206932
5	0x3eb92159	0.36158255
6	0xbca49eef	-0.020095317
7	0x3f0700c7	0.5273556
8	0x3eb8d8a2	0.36102778
9	0xbe61a3e5	-0.22035177
10	0x3d2221d1	0.03958303
11	0xbeae4716	-0.3403861
12	0x3d9f7236	0.07785456
13	0x3e913803	0.28363046
14	0x3ea87f48	0.32909608
15	0x3e5aa41d	0.21351667
16	0x3e2e54ee	0.17024586
17	0xbb562119	-0.0032673536
18	0xbec59e8c	-0.38597524
19	0x3ec31a71	0.3810611
20	0xbc8e1bf5	-0.017347315
21	0xbe387163	-0.18012004
22	0x3d90f558	0.070780456
23	0xbc95eca8	-0.018301323
24	0x3fb24862	1.392834
25	0xbe904c65	-0.28183284
26	0x3cb06493	0.021532333
27	0xbe07b15d	-0.13251252
28	0xbd141370	-0.03615135
29	0x3f0b8e31	0.5451384
30	0x3e8d843f	0.27639958
31	0xbd87207e	-0.06597994
32	0xbdad4860	-0.0846107
33	0xbe93beb8	-0.28856444
34	0x3cecbb22	0.028897826
35	0x3c968374	0.018373229
36	0x3cb5c4a4	0.022188492
37	0xbede35ac	-0.43400323
38	0xbdb7e3a0	-0.08978963
39	0x3e7e5735	0.24837954
40	0x3ee17667	0.44035646
41	0xbf99c4bd	-1.2013165
42	0xbdc1e120	-0.09466767
43	0x3e8ace38	0.27110457
44	0x3dade00b	0.084899984
45	0x3e1e818e	0.15479109
46	0x3f740807	0.9532475
47	0x3ce79653	0.028269922
48	0x3e958f6e	0.2921099
49	0xbc1fa994	-0.00974502
50	0xbddfb7f0	-0.10923755
51	0x3e87e913	0.2654501
52	0x3cc4bddc	0.024016313
53	0x3eae3877	0.34027454
54	0xbd842206	-0.06451802
55	0xbe0320fa	-0.12805548
56	0xbe7749f4	-0.24149305
57	0xbd1023f5	-0.03519054
58	0xbe31c409	-0.17359938
59	0xbede4a9c	-0.43416297
60	0x3e8eb93c	0.27875698
61	0x3dc2badb	0.09508296
62	0xbe5a091b	-0.21292536
63	0xbdc338a2	-0.09532286

fc3.weight f4 [3, 64]
0	0x3fbd6bfc	1.4798579
1	0xbfa09e4a	-1.2548306
2	0x3fb4e4a8	1.413228
3	0x3f533519	0.82502896
4	0xbdcaa6b7	-0.098950796
5	0x3fbd4ef4	1.478972
6	0x3a62b3aa	0.0008647988
7	0x3f26c79c	0.6514833
8	0x3eabadc4	0.3353101
9	0xbf88f2b8	-1.0699072
10	0x4013e505	2.3108532
11	0xbf0093cb	-0.50225514
12	0xbf04b9b6	-0.5184587
13	0x3fb47ba6	1.4100235
14	0x3fa9366b	1.3219732
15	0x3f1538c8	0.58289766
16	0xbf0241b2	-0.50881493
17	0xbf37aec8	-0.7175107
18	0xbf74c92d	-0.9561947
19	0x3f9cc6e2	1.2248194
20	0x3db0edb8	0.08639091
21	0xbde68fba	-0.112578824
22	0xbde70142	-0.11279537
23	0xbf331ba2	-0.6996404
24	0x3f5d1e84	0.8637469
25	0xbe67796c	-0.22604913
26	0x3c883e28	0.0166312
27	0xbc0e7626	-0.008695161
28	0x4016fe8f	2.359287
29	0x3f912fee	1.1342752
30	0x40056037	2.0839975
31	0xbe7a2386	-0.24427614
32	0xbdaad66b	-0.08341678
33	0xbf082c30	-0.53192425
34	0x4012f594	2.296239
35	0x3fb55ecd	1.4169556
36	0xbcdceacd	-0.02696743
37	0xbf2511e0	-0.644804
38	0xbde3acca	-0.11116941
39	0x3fe09ece	1.7548463
40	0x3fa41319	1.2818328
41	0xbff07164	-1.8784604
42	0xbc7987d2	-0.015230136
43	0x3f3e9ac6	0.74454916
44	0xbee0d56d	-0.4391283
45	0x3f872cb3	1.0560516
46	0x3f802827	1.0012254
47	0xbf626448	-0.8843427
48	0xbf811d99	-1.0087157
49	0x3d9e4158	0.07727307
50	0xbd0518c6	-0.03249433
51	0x3eb58469	0.35452583
52	0xbe91e044	-0.28491414
53	0x3ee3a143	0.4445897
54	0x3fcab71a	1.5837128
55	0xbd333f5e	-0.043761604
56	0xbf02fdba	-0.51168406
57	0xbcb3bcfb	-0.021940699
58	0xbf92bfa2	-1.1464732
59	0xbff48497	-1.9102963
60	0xbf5bc88a	-0.85852873
61	0xbf5c7a8f	-0.8612451
62	0xbf4aae4b	-0.791722
63	0xbcb2919a	-0.021797944
64	0x3fc5c2b1	1.545004
65	0xbf9f601f	-1.2451209
66	0x3fa63a7f	1.2986602
67	0x3f6b03c8	0.91802645
68	0x3dd21914	0.102586895
69	0x3fccb129	1.5991565
70	0x3d9f4fee	0.07778917
71	0x3f4c38d8	0.79774237
72	0x3f02f35f	0.51152605
73	0xbfab1bda	-1.3367875
74	0x4032dde8	2.794794
75	0xbf030590	-0.5118036
76	0xbc69a883	-0.014261368
77	0x3fbd491b	1.4787935
78	0x3fb31bda	1.3992875
79	0x3f2af8e3	0.6678602
80	0xbf47d554	-0.7805989
81	0xbf4166dd	-0.7554758
82	0xbf445da0	-0.7670536
83	0x3fa1906c	1.2622199
84	0x3c980b22	0.018559996
85	0xbec30bef	-0.38095042
86	0xbee0505e	-0.43811315
87	0xbf1ff3d6	-0.6248144
88	0x3f53df99	0.8276306
89	0xbeaee087	-0.34155676
90	0x3d856863	0.06514051
91	0xbd056262	-0.03256453
92	0x401176e6	2.272882
93	0x3f7af271	0.98026186
94	0x3ff84fe5	1.9399382
95	0x3d6c8ab3	0.05774946
96	0xbc0b8f90	-0.008518115
97	0xbebf5cdb	-0.3737553
98	0x3ff5e3b2	1.9210112
99	0x3fdcc1bd	1.7246624
100	0xbc739430	-0.014866874
101	0xbf143424	-0.5789206
102	0x3d5719d8	0.05251488
103	0x3fd56ced	1.6673867
104	0x3fa4b52f	1.2867793
105	0xbfebeef8	-1.8432302
106	0xbcbdde0d	-0.023177171
107	0x3f39305e	0.7233943
108	0x3c8b93e2	0.01703829
109	0x3f8eb7d2	1.1149848
110	0x3f74f8a0	0.9569187
111	0xbf525c2e	-0.82171905
112	0xbf8e6c95	-1.1126887
113	0xbd288a20	-0.04114735
114	0x3d65e61f	0.056127664
115	0x3d1fee6c	0.039045736
116	0xbdb3751d	-0.08762572
117	0xbe7f9bc3	-0.24961762
118	0x3fe37a22	1.7771647
119	0xbeb4ce24	-0.35313523
120	0xbeeca6a2	-0.4622088
121	0x3cdacb89	0.026708381
122	0xbf8939d0	-1.0720768
123	0xbff18b4f	-1.8870639
124	0xbf3f1ab8	-0.74650145
125	0xbf5cc93e	-0.8624457
126	0xbf6766e2	-0.9039136
127	0xbdb3cd88	-0.08779436
128	0x3fbf2313	1.4932579
129	0xbf81f547	-1.0152978
130	0x3faed2cf	1.3658084
131	0x3fa3ce1c	1.2797275
132	0x3db60d07	0.088892035
133	0x3fd0bf15	1.6308314
134	0xbb1ee87b	-0.0024247456
135	0x3f7aa94a	0.97914565
136	0x3f116384	0.56792474
137	0xbfd1dcfb	-1.6395563
138	0x4035adf9	2.8387434
139	0xbf254968	-0.64565134
140	0x3e864ea2	0.26231867
141	0x3fc1071a	1.5080292
142	0x3fae05c7	1.3595513
143	0x3f6381c5	0.8886989
144	0xbf8db1ae	-1.1069849
145	0xbf441b34	-0.7660401
146	0xbf111684	-0.5667498
147	0x3fb3f5cb	1.4059385
148	0xbdab363e	-0.08359955
149	0x3e02de04	0.12780005
150	0xbf6c670b	-0.9234473
151	0xbd9cb2ea	-0.07651313
152	0x3f4d5264	0.80203843
153	0xbed20863	-0.41022024
154	0x3c1dbd86	0.009627705
155	0x3c5115db	0.012761558
156	0x3fff3050	1.9936619
157	0x3f4e8b63	0.8068144
158	0x4014d970	2.3257713
159	0x3e969146	0.2940771
160	0xbd7b71e2	-0.061387904
161	0xbe8f7a4d	-0.28022996
162	0x3fe4cb76	1.7874591
163	0x3fe6cb7d	1.803085
164	0xbcda5da4	-0.02665598
165	0xbee96507	-0.4558489
166	0x3d4c6681	0.049902443
167	0x3fa79e58	1.3095198
168	0x3fa6a136	1.3017948
169	0xbfd99a0c	-1.7000136
170	0xbdc89951	-0.09794868
171	0x3f03d346	0.5149425
172	0x3e7e2207	0.24817668
173	0x3f91321b	1.1343416
174	0x3f761cd9	0.9613777
175	0xbf14ded5	-0.58152515
176	0xbf7c005e	-0.9843806
177	0xbdc8f614	-0.09812561
178	0x3da2c7da	0.07948275
179	0xbf147448	-0.5798993
180	0xbe7c18f3	-0.24618892
181	0xbfa001d0	-1.2500553
182	0x3fee5429	1.8619434
183	0xbf110ffe	-0.5666503
184	0xbf29b0be	-0.6628531
185	0xbdbc89c0	-0.09205961
186	0xbf85ab55	-1.0442911
187	0xbfd57bfe	-1.6678464
188	0xbf389f1a	-0.7211777
189	0xbf703e5e	-0.93845165
190	0xbf8a6396	-1.0811641
191	0xbcaebee7	-0.021331264

fc3.bias f4 [3]
0	0x3f8e81c9	1.1133357
1	0x3f520515	0.82039005
2	0x3f54534b	0.82939595
